…
[1mindex aa0f0d8..487d85b 100644[m
[1m--- a/sorting_deep_hat.ipynb[m
[1m+++ b/sorting_deep_hat.ipynb[m
[36m@@ -2,7 +2,7 @@[m
  "cells": [[m
   {[m
    "cell_type": "code",[m
[31m-   "execution_count": 2,[m
[32m+[m[32m   "execution_count": 37,[m
    "metadata": {},[m
    "outputs": [[m
     {[m
[36m@@ -14,69 +14,85 @@[m
       "_________________________________________________________________\n",[m
       "Layer (type)                 Output Shape              Param #   \n",[m
       "=================================================================\n",[m
[31m-      "conv2d_4 (Conv2D)            (None, 98, 98, 32)        896       \n",[m
[32m+[m[32m      "conv2d_46 (Conv2D)           (None, 98, 98, 32)        896       \n",[m
       "_________________________________________________________________\n",[m
[31m-      "activation_6 (Activation)    (None, 98, 98, 32)        0         \n",[m
[32m+[m[32m      "activation_76 (Activation)   (None, 98, 98, 32)        0         \n",[m
       "_________________________________________________________________\n",[m
[31m-      "max_pooling2d_4 (MaxPooling2 (None, 49, 49, 32)        0         \n",[m
[32m+[m[32m      "max_pooling2d_46 (MaxPooling (None, 49, 49, 32)        0         \n",[m
       "_________________________________________________________________\n",[m
[31m-      "conv2d_5 (Conv2D)            (None, 47, 47, 32)        9248      \n",[m
[32m+[m[32m      "conv2d_47 (Conv2D)           (None, 47, 47, 32)        9248      \n",[m
       "_________________________________________________________________\n",[m
[31m-      "activation_7 (Activation)    (None, 47, 47, 32)        0         \n",[m
[32m+[m[32m      "activation_77 (Activation)   (None, 47, 47, 32)        0         \n",[m
       "_________________________________________________________________\n",[m
[31m-      "max_pooling2d_5 (MaxPooling2 (None, 23, 23, 32)        0         \n",[m
[32m+[m[32m      "max_pooling2d_47 (MaxPooling (None, 23, 23, 32)        0         \n",[m
       "_________________________________________________________________\n",[m
[31m-      "conv2d_6 (Conv2D)            (None, 21, 21, 64)        18496     \n",[m
[32m+[m[32m      "conv2d_48 (Conv2D)           (None, 21, 21, 64)        18496     \n",[m
       "_________________________________________________________________\n",[m
[31m-      "activation_8 (Activation)    (None, 21, 21, 64)        0         \n",[m
[32m+[m[32m      "activation_78 (Activation)   (None, 21, 21, 64)        0         \n",[m
       "_________________________________________________________________\n",[m
[31m-      "max_pooling2d_6 (MaxPooling2 (None, 10, 10, 64)        0         \n",[m
[32m+[m[32m      "max_pooling2d_48 (MaxPooling (None, 10, 10, 64)        0         \n",[m
       "_________________________________________________________________\n",[m
[31m-      "flatten_2 (Flatten)          (None, 6400)              0         \n",[m
[32m+[m[32m      "flatten_16 (Flatten)         (None, 6400)              0         \n",[m
       "_________________________________________________________________\n",[m
[31m-      "dense_3 (Dense)              (None, 64)                409664    \n",[m
[32m+[m[32m      "dense_31 (Dense)             (None, 64)                409664    \n",[m
       "_________________________________________________________________\n",[m
[31m-      "activation_9 (Activation)    (None, 64)                0         \n",[m
[32m+[m[32m      "activation_79 (Activation)   (None, 64)                0         \n",[m
       "_________________________________________________________________\n",[m
[31m-      "dropout_2 (Dropout)          (None, 64)                0         \n",[m
[32m+[m[32m      "dropout_16 (Dropout)         (None, 64)                0         \n",[m
       "_________________________________________________________________\n",[m
[31m-      "dense_4 (Dense)              (None, 4)                 260       \n",[m
[32m+[m[32m      "dense_32 (Dense)             (None, 4)                 260       \n",[m
       "_________________________________________________________________\n",[m
[31m-      "activation_10 (Activation)   (None, 4)                 0         \n",[m
[32m+[m[32m      "activation_80 (Activation)   (None, 4)                 0         \n",[m
       "=================================================================\n",[m
       "Total params: 438,564\n",[m
       "Trainable params: 438,564\n",[m
       "Non-trainable params: 0\n",[m
       "_________________________________________________________________\n",[m
       "Epoch 1/20\n",[m
[31m-      "25/25 [==============================] - 11s 430ms/step - loss: 1.4065 - acc: 0.2650 - val_loss: 1.3742 - val_acc: 0.2500\n",[m
…
